Bert_smiles.pt (torch, 357083 bytes, 5 tensors)

encoder.embedding.weight f4 [88, 256]
000000 71 93 31 3e 53 12 0a 3f e8 5d d1 3f 63 4c b3 3e
       0.173414 0.5393421 1.6356783 0.35019216
000010 21 a9 5f bd 82 09 b3 3a bf 09 1d 3c 55 6f da bd
       -0.054604653 0.001365945 0.009584843 -0.10665766
000020 51 9e 0d 3e 08 17 b5 bf 89 13 7f bf 55 94 dd be
       0.13829924 -1.4147654 -0.99639183 -0.4327723
000030 49 4a 29 be 84 4e f1 be 31 e6 96 3f 7d 6f a8 3e
       -0.16532244 -0.47130215 1.1788999 0.3289756
000040 96 27 67 be 00 02 2c bf 54 ef c9 be af 28 1c bf
       -0.22573695 -0.6719055 -0.39440405 -0.6099958
000050 29 40 b2 3d d0 ea 05 3f 20 c5 03 bf 67 17 d7 bd
       0.08703644 0.5231142 -0.51472664 -0.105025105
000060 0a a9 0e 40 64 65 d1 3f 2f ef e5 bf a8 f9 b4 3d
       2.2290673 1.6359067 -1.7963618 0.08836681
000070 89 dd 8b bf 54 2a 38 3e 2e 05 71 3f bb 64 91 3f
       -1.0926982 0.17984897 0.9414853 1.1358865
000080 d0 27 59 3e f2 0a f7 be b5 09 41 bf 2a e4 fb bd
       0.21206594 -0.48250538 -0.75405437 -0.12299378
000090 be 17 91 3e 01 e7 2a 3f 12 17 a0 bf 46 82 04 bf
       0.28338426 0.66758734 -1.250704 -0.5176128
0000a0 bf 76 ab be 4b 82 9d bf db f3 d1 3e e0 08 18 be
       -0.33489034 -1.2305387 0.4100636 -0.14847136
0000b0 67 e4 a0 3f 20 c8 d8 bf 8d 6d a5 bf 66 ab 2f 3f
       1.2569703 -1.6936073 -1.2924057 0.6862091
0000c0 06 16 54 bf f4 1c f6 3f 2a 08 bb be c0 02 8b 3f
       -0.82846105 1.9227586 -0.36529666 1.0860214
0000d0 7b cf b4 bf b1 10 01 be 6d 14 3f 3f 04 c4 2f 3f
       -1.4125818 -0.12604024 0.7464054 0.6865847
0000e0 0f fe 00 c0 c3 cf 9d be 2e d3 c2 be 55 37 12 3f
       -2.0155065 -0.30822572 -0.38051742 0.5711568
0000f0 09 93 30 3f 04 a7 4f bf e2 4e c4 bf 79 33 58 3f
       0.6897436 -0.8111422 -1.5336573 0.8445354
000100 7e ee 4f 3f ea af d1 be 7e ad 90 3f db 72 53 3f
       0.81223285 -0.40954524 1.1302946 0.8259713
000110 2b 4c 9c 3e f8 ea 82 3f 63 87 09 3f 44 17 9d bf
       0.30526862 1.0227957 0.5372221 -1.2272725
000120 63 a3 4c be 81 62 13 3e ce ec 9c 3e 94 ec 00 bf
       -0.19984202 0.14393045 0.30649418 -0.5036099
000130 d8 d7 63 bf d6 a3 4b be 4b 3d f5 be d0 01 59 bf
       -0.89001226 -0.19886717 -0.47898325 -0.8476839
000140 f0 0a 7d 3f 45 ed ef 3e f8 9b a6 be a0 0b c9 bf
       0.98844814 0.4686071 -0.3254087 -1.5706673
000150 5c dd 90 be 32 d2 e9 be 17 74 1e c0 76 4f e2 3e
       -0.28293884 -0.4566818 -2.4758356 0.4420125
000160 f6 fc 66 3f 2f 85 33 bf 02 87 97 3f a8 73 fe be
       0.9022974 -0.701251 1.1838076 -0.49697614
000170 16 3e 5b bf 6b a1 44 bf df 33 62 3f d9 95 61 bf
       -0.8564161 -0.76808804 0.883604 -0.88119274
000180 e1 c4 49 3e d6 e6 9f bd 79 f0 dd 3c 04 e8 33 3e
       0.1970401 -0.078077 0.027092205 0.17568976
000190 fc ad 6a 3e e0 23 79 bf ec 7d e9 bf 72 4d 91 be
       0.22917932 -0.97320366 -1.8241553 -0.283794
0001a0 12 40 96 bf a4 7c 37 3f ee d9 40 be 14 2c f2 be
       -1.1738303 0.7167456 -0.18833134 -0.47299254
0001b0 f2 55 80 3f 8b a9 e9 be 36 f4 2d bf 46 2e 17 3f
       1.0026228 -0.45637164 -0.6795076 0.5905498
0001c0 1e 19 e0 bd be cc a0 3e 3e 2f 4e bf dc 4c e1 3e
       -0.10942291 0.31406206 -0.80540836 0.44003952
0001d0 07 67 b4 bf ff 43 bb be 9a d6 3e be b1 53 24 bf
       -1.4093941 -0.36575314 -0.18636551 -0.641902
0001e0 f1 50 8d 3f c5 9a 0f bf 3d a9 dd bf 69 7c b7 be
       1.1040326 -0.56095535 -1.7317272 -0.35837105
0001f0 21 f5 e1 be 19 55 c3 bd 68 48 b8 bf b1 6c 1a bf
       -0.4413233 -0.095377155 -1.4397097 -0.603221
000200 ff 88 84 bf 0c 3c 58 3f 96 fb e4 3b 29 45 13 3f
       -1.0354308 0.84466624 0.006987999 0.57527405
000210 d7 39 18 3e 08 45 ae be 50 e6 8b 3f 32 92 b8 3f
       0.14865814 -0.34037042 1.0929661 1.4419615
000220 c9 fe 82 3f d8 00 cc 3f 56 aa df 3e 4e b2 9d 3f
       1.0234004 1.5937757 0.43684644 1.2320039
000230 15 c2 76 3f ff 45 90 bf 45 d1 c0 3f 3e b0 6a bf
       0.96389896 -1.1271361 1.5063864 -0.91675174
000240 8d 33 fe bf f4 86 0a be b8 40 47 3f 77 92 97 bd
       -1.9859482 -0.13528043 0.7783313 -0.07400983
000250 81 dc 08 bd bb 17 85 bd 64 00 22 bf 7e e2 00 40
       -0.033413414 -0.06498667 -0.63281846 2.013824
000260 01 d9 10 3f d1 c7 c5 3e a8 ad 73 3d 5d 3d e6 3f
       0.5658112 0.3862901 0.059491783 1.7987477
000270 fc b9 cc bf a5 f9 a9 3d 83 c8 ef be 75 7b f1 bf
       -1.5994258 0.08299569 -0.46832666 -1.8865801
000280 fb 0f 32 bf 6e a3 fc 3e 90 a1 8b bf ae 96 a3 bf
       -0.69555634 0.49343437 -1.090868 -1.2780359
000290 d7 14 ce 3e a0 29 29 bf 53 16 a1 3f 49 5b 2b be
       0.40250275 -0.6607914 1.2584938 -0.16734041
0002a0 5e 3c 4f bf 35 f3 0e 3e 0e 26 4a 3e 03 e9 49 be
       -0.8095149 0.13959964 0.19741079 -0.19717793
0002b0 77 5f c3 3f f9 dc 36 3e 87 e3 98 be 26 26 72 3e
       1.5263509 0.17857732 -0.2986109 0.23647365
0002c0 24 06 be be aa 80 0b bf 96 b2 9d bf 00 ad 6e 3f
       -0.3711406 -0.544932 -1.2320125 0.9323273
0002d0 ff 3e 99 3f 55 84 9a bf c2 cc c0 bc 6c f8 8b 3e
       1.197235 -1.2071635 -0.023535136 0.27337968
0002e0 c8 15 ee be 7f 9b 16 3f 81 a1 ee 3d 20 98 d4 3e
       -0.46500993 0.5883102 0.11651898 0.41522312
0002f0 2d 17 46 3e 63 1e 32 bf 2a b5 7f 3e 61 87 8e 3f
       0.19344778 -0.69577616 0.24971452 1.1135064
000300 2a cd 90 bf 43 19 32 3e 06 f0 09 bf 4e 69 84 3f
       -1.1312611 0.17392449 -0.5388187 1.0344636
000310 c8 f4 83 bf 2b da ed 3b 6a ce b5 3f 88 47 82 3e
       -1.0309076 0.0072586737 1.4203618 0.254452
000320 69 4f de be bd d4 63 bf ec dd cd bf 7e 8e 13 40
       -0.4341996 -0.8899649 -1.608335 2.305572
000330 b1 18 a5 bf 98 1d df bf 0b 8d 84 3f 01 7d 2b c0
       -1.289816 -1.7430906 1.0355543 -2.6795046
000340 73 2c 5a 3f 63 e1 cd be 52 63 11 3f a9 da 6b be
       0.85224074 -0.4021102 0.56792176 -0.23032631
000350 c5 87 96 be e2 b4 a9 be 3b 22 48 bf 44 c7 7a bd
       -0.2940046 -0.33145815 -0.7817723 -0.06122519
000360 db a0 f5 be fe 0f f8 3c a5 36 68 3f 07 db b7 3e
       -0.47974285 0.030281063 0.9070838 0.35909292
000370 04 c8 9c be 16 b6 e9 3f 93 0a 66 be 11 f0 72 bf
       -0.3062135 1.8258693 -0.22464971 -0.9489756
000380 3a 15 05 3f a9 2a 01 c0 73 c6 37 bf f3 90 31 3f
       0.51985514 -2.0182288 -0.71787184 0.693618
000390 77 9c ee 3f df b4 ec bd 2a 76 ea bf 76 ef 0c be
       1.8641499 -0.11557936 -1.8317311 -0.13763222
0003a0 ad 99 62 3e 3a 48 9d 3f 88 00 59 3f 62 6e bb 3e
       0.22128935 1.2287667 0.84766436 0.36607653
0003b0 c1 52 af 3d 89 7e 0e bf 59 b4 7b bf db 82 3c 3f
       0.08560706 -0.5566183 -0.98322064 0.7363717
0003c0 ac da 3e bf ba 6e e8 bf 99 b7 11 bf eb 88 86 3f
       -0.74552417 -1.8158791 -0.5692077 1.0510534
0003d0 41 0e bb bf 67 2a 8d 3f fb 25 f3 3e 58 9c d7 3e
       -1.4613725 1.1028565 0.47489914 0.42111468
0003e0 ff 3b cc bf e0 31 49 bf ca 59 16 3f f0 e9 8b bf
       -1.5955809 -0.7859173 0.5873076 -1.0930767
0003f0 32 d6 90 3f a6 52 4b 3f 40 7c f7 be c2 34 c4 3f
       1.1315367 0.79422987 -0.48336983 1.53286

fc1.weight f4 [256, 256]
000000 1c bd 27 3d de 5a 42 bd cc b7 96 3c ac ac 28 bd
       0.040951833 -0.04744994 0.018398188 -0.041180298
000010 e0 17 78 bd 42 6c 75 3d 68 e5 28 bc 56 3b 2d bd
       -0.060569644 0.059917696 -0.010308601 -0.042292915
000020 6c 27 df 3c 30 94 99 bb 78 3e 71 bc 06 ba 04 3d
       0.027240478 -0.004686855 -0.014724366 0.03240397
000030 10 3e ee 3b a4 f8 46 3d 50 13 0f 3d 2c bd df bc
       0.007270582 0.048576966 0.034930527 -0.027311884
000040 d0 7e 57 bc ae 48 3a bd e0 b2 d4 bc 3c 7c 8e bc
       -0.013152793 -0.04547947 -0.0259642 -0.017393224
000050 5c 31 ce bc d4 e3 36 3d 50 14 6f 3d 08 28 58 bd
       -0.02517002 0.044650868 0.05836898 -0.05277255
000060 a0 37 21 3c 24 b5 f0 bc 8a ef 4f 3d b6 f7 59 3d
       0.009839922 -0.02938325 0.05076555 0.05321475
000070 e8 ac f3 3c c4 6c e6 3c a4 cc 08 3d d0 c9 0f 3c
       0.029745534 0.028128035 0.033398286 0.008776143
000080 d4 45 7e 3d 12 f5 6e 3d 7c 5d 00 3d 04 df 99 3c
       0.062078312 0.058339186 0.031339154 0.0187831
000090 e0 a7 7d 3c 40 c9 6d bd 00 95 e2 b9 e0 48 44 bb
       0.015481919 -0.058053255 -0.00043217093 -0.0029950663
0000a0 e0 da 74 3d f8 25 72 bd 8e 9b 2c bd a4 54 d4 bc
       0.059779048 -0.05911824 -0.042140536 -0.025919266
0000b0 66 e6 29 bd 08 c1 ca bc 34 d3 f8 bc 2a 54 18 3d
       -0.04147949 -0.024750248 -0.030374147 0.03718964
0000c0 d4 8e b0 3c 20 94 b7 bc 08 f2 a9 3c 88 ca 0d 3c
       0.02155248 -0.022409499 0.020745292 0.008654244
0000d0 b0 9f d2 3b 74 43 bd bc ee e4 6e 3d 80 d2 26 bb
       0.0064277276 -0.023103453 0.058323793 -0.0025455058
0000e0 94 9b ab bc 94 85 aa bc 90 ac ea bb 42 fc 43 bd
       -0.020948209 -0.020815648 -0.0071616843 -0.047847994
0000f0 00 e6 9f bb 20 8b 8a bb c8 c0 3f bc 1a ea 70 bd
       -0.004879713 -0.004228011 -0.0117036775 -0.058817007
000100 0c d8 03 bd 70 1a f6 3b 28 5b 10 3c 98 00 fd bc
       -0.03218846 0.007510476 0.008810796 -0.030884072
000110 d8 85 a3 bc 8a cf 20 3d f0 a1 d4 3b 98 62 93 bc
       -0.019961283 0.039260425 0.006489031 -0.01799135
000120 58 01 0c 3c 1c 88 c5 bc d4 53 02 bd b8 72 3f 3d
       0.008545242 -0.024112754 -0.031818226 0.046740264
000130 cc a4 0e 3d dc b6 64 bd 1c 22 69 3d 90 c8 b6 bc
       0.03482513 -0.05583845 0.056917295 -0.022312433
000140 a2 3a 17 3d 30 1d aa bc c0 d9 10 3d 9c c0 e2 3c
       0.03692115 -0.02076587 0.035363913 0.027679734
000150 6c a4 40 3d e0 44 4c bb d0 33 f7 3c b0 6a 79 bc
       0.047031805 -0.0031168982 0.030176073 -0.01522319
000160 34 2f 6b bd 20 06 35 3c e0 7c 6b bd 60 90 bf 3b
       -0.057418063 0.011048824 -0.057492137 0.0058460683
000170 c0 f1 5e 3c c4 e5 31 bd 14 09 6e 3d 8c e2 3a 3d
       0.013607442 -0.043432012 0.058114126 0.04562621
000180 38 f9 bf bc c0 9a df 3c 00 c3 f9 39 d0 d2 ec 3c
       -0.023434266 0.02729547 0.00047638267 0.028909117
000190 10 cf d8 bc a0 29 57 3c c0 b7 b3 bc a6 93 12 3d
       -0.026465923 0.013132483 -0.021938205 0.03578534
0001a0 6e 74 1d 3d f4 2d ce bc 9c cc e0 3c e4 fc 64 3d
       0.038441114 -0.025168397 0.027441315 0.055905238
0001b0 88 8c c4 bc a6 ba 4b bd 16 45 05 bd 98 be bd 3c
       -0.023992792 -0.04973855 -0.03253659 0.023162171
0001c0 e4 5e 61 3d 9c 92 93 3c 90 d1 b5 bc 40 da 9a bb
       0.055022135 0.018014245 -0.022194654 -0.0047257245
0001d0 f8 4d 5a bc 40 c1 6d 3c 12 1c 49 bd 3c 8b 93 bc
       -0.013324253 0.014511406 -0.049099036 -0.018010728
0001e0 4c 6d a1 bc 50 df bd bc 6c 1f 2f bd 4a c8 37 bd
       -0.019705437 -0.023177773 -0.042754576 -0.044868745
0001f0 44 52 d8 bc e6 f3 29 bd f8 18 6f 3d 5a 58 2a 3d
       -0.026406415 -0.041492365 0.05837342 0.041588165
000200 e0 bc 1f bd 58 f6 6d bc 92 d1 3c bd 08 18 01 3d
       -0.038998485 -0.014524065 -0.0460983 0.03151706
000210 60 f5 19 bb fc c0 bf 3c bc 79 6c bd 1c dd c5 3c
       -0.0023492202 0.023407452 -0.057733282 0.024153285
000220 e0 bc 34 bc e8 1a d3 3c be 1c 50 bd a0 6b 44 bc
       -0.011031359 0.025769666 -0.05080866 -0.01198855
000230 c8 f9 91 3c 44 ec a4 bc cc dd cc bc 6c 0a e4 bc
       0.0178193 -0.020132191 -0.025008105 -0.027837
000240 4c e2 3d 3d aa c5 2f 3d 2e e9 44 bd 60 00 cc 3b
       0.04635839 0.042913117 -0.04807394 0.0062256306
000250 cc a9 6d 3d ec 00 d5 bc cc dd bb bc 40 01 68 bc
       0.05802326 -0.026001416 -0.02293291 -0.014160454
000260 12 ef 3a 3d e8 24 17 bd 0e 5e 1f bd c8 e4 b9 bc
       0.04563815 -0.03690043 -0.038908057 -0.0226921
000270 8a f7 66 bd 68 96 12 bc bc 2f c6 3c 34 3e cd 3c
       -0.056388415 -0.008946992 0.024192683 0.025054075
000280 54 e7 c6 3c 64 01 1d bd 44 6a a5 3c 40 07 1e 3c
       0.024280228 -0.038331404 0.020192273 0.009645283
000290 e8 15 73 bd 80 39 6d bb 80 ad f6 ba 88 f2 dd 3c
       -0.059347063 -0.0036197603 -0.0018820018 0.027093187
0002a0 d0 ce 4f 3c 98 0f 78 3c 78 7c 7d bc 6c 03 26 3d
       0.012683585 0.015140437 -0.01547157 0.040530607
0002b0 1c 42 d6 bc 5c de bd 3c 3a f1 56 bd ae 52 37 3d
       -0.02615457 0.023177318 -0.052476145 0.044756584
0002c0 0c 39 a5 bc b8 66 6c 3d c8 5c 6b bd 18 b5 6b 3c
       -0.020168804 0.057715148 -0.05746153 0.014386438
0002d0 b6 1f 61 3d 0c 15 2d 3d 44 51 4a bd 18 bb 32 3c
       0.054961883 0.0422564 -0.049393907 0.010908864
0002e0 f0 bd 46 3d 2a 53 43 bd 30 cd 40 bc 70 1a d5 3c
       0.048520982 -0.047686733 -0.0117676705 0.026013583
0002f0 3e 8d 73 3d d2 13 58 bd c0 90 f1 bb 60 c8 1d 3c
       0.05946087 -0.052753277 -0.007371992 0.009630293
000300 44 cd 8f bc 00 60 78 b9 90 7a aa 3c 44 63 48 bd
       -0.017553933 -0.00023686886 0.020810395 -0.048922792
000310 18 3c 70 bd bc bd d0 3c 60 0e 2a 3b 7c ff 5c bd
       -0.05865106 0.025481097 0.002594851 -0.053954586
000320 30 5d ef 3c ec 86 ff bc 80 dd 28 3b 18 1e 11 bd
       0.02921924 -0.031192265 0.002576679 -0.03542909
000330 40 48 4f 3b d8 41 1b bd f4 1c 71 3d 98 25 7e bc
       0.0031628758 -0.03790459 0.058865502 -0.015511893
000340 36 ed 70 bd a6 b4 3a 3d 86 d2 79 3d e6 cc 58 3d
       -0.058819972 0.045582436 0.060991786 0.05292978
000350 8a 0f 4e 3d f4 b8 0c 3d fc 1c 46 bd 20 e1 23 3c
       0.050307788 0.034356073 -0.048367485 0.010002404
000360 f4 7e 9d bc 1c ea a1 bc 50 f8 85 bb e0 7e 11 3c
       -0.019225575 -0.019764952 -0.004088439 0.008880347
000370 72 ca 3a bd 36 bf 66 bd a8 7d b0 bc 08 2f 45 3d
       -0.045603223 -0.056334697 -0.021544293 0.048140556
000380 2a 53 78 3d f0 32 85 3c a0 30 70 3d d8 d5 08 bc
       0.060626186 0.01625964 0.058640122 -0.008351766
000390 24 ee ca 3c 60 5e 28 bd 12 1b 37 3d 34 44 73 bd
       0.024771757 -0.041105628 0.04470355 -0.059391215
0003a0 72 c2 33 3d 88 27 c3 bc 5e a8 37 bd 48 95 8d bc
       0.04388661 -0.02382256 -0.0448383 -0.017283097
0003b0 f0 24 26 bd 30 fe a0 3c 00 92 67 3b ec 7a 4f 3d
       -0.04056257 0.019652456 0.0035334826 0.050654337
0003c0 b8 24 56 3d 3c f0 73 3d 60 48 c3 3c 8c 0b 82 bc
       0.05228111 0.059555277 0.023838222 -0.015874647
0003d0 94 f0 33 bd de 23 70 3d 9c 98 e5 bc c2 ea 05 bd
       -0.043930605 0.058627956 -0.028026871 -0.032694586
0003e0 90 d4 d5 3b d2 30 55 3d 4a 53 3f 3d 56 27 62 3d
       0.0065255836 0.05204851 0.04671029 0.055213295
0003f0 02 5f 69 bd 44 3a 84 3c 24 44 39 bd 80 8d a9 bc
       -0.056975372 0.016141064 -0.045231 -0.020697355

fc1.bias f4 [256]
000000 18 f9 61 bd 80 5c e6 3a 88 ca d3 3c 84 a2 70 bd
       -0.055169195 0.0017575175 0.02585341 -0.058748737
000010 46 44 7e bd f0 96 b2 bb fe e5 73 bd 66 13 7b bd
       -0.06207683 -0.005450122 -0.05954551 -0.061297797
000020 f8 28 84 bc 38 bd 1e bd 86 ea 0f bd 30 1d c4 3c
       -0.016132817 -0.03875467 -0.03513577 0.023939699
000030 8c ca 75 3d 76 bc 2e bd d8 ee e7 bc f4 81 7c 3d
       0.060007617 -0.0426602 -0.028312132 0.06164737
000040 e0 f4 ff bc 0e af 41 bd b4 0f c0 3c c0 20 34 bd
       -0.031244695 -0.047286086 0.023444988 -0.043976545
000050 e0 8c 16 bc a0 b0 d8 bc cc 76 be 3c 3c 82 ae bc
       -0.009188861 -0.026451409 0.023250006 -0.021302335
000060 14 50 c4 bc 64 19 84 3c 98 53 4b bc 32 99 3d bd
       -0.023963965 0.016125388 -0.012410067 -0.046288677
000070 08 7d 49 3d 48 90 71 3d 00 21 b4 3c 30 64 2f bd
       0.049191505 0.058975488 0.021988392 -0.042820156
000080 d0 a0 96 bb 88 f9 61 3c a8 d4 33 bd 56 6b 53 bd
       -0.004596807 0.013792403 -0.043903977 -0.051616035
000090 70 f0 34 3c c0 3b 09 bb f0 ae 29 3c 4c fa 17 3d
       0.011043653 -0.0020940155 0.01035665 0.037103936
0000a0 98 d3 f6 bc 08 df 20 bc e0 a1 9b 3b 50 0e 58 3c
       -0.030130193 -0.0098188 0.0047495216 0.013187006
0000b0 a0 0e 59 3d 16 79 45 3d 00 8a 2b b9 20 dc 04 3c
       0.052992463 0.04821118 -0.0001635924 0.0081091225
0000c0 80 34 d3 3c 9a 3f 55 bd 02 0c 6d 3d 38 a9 c8 bc
       0.02578187 -0.05206261 0.05787278 -0.024494752
0000d0 98 8f 55 3c 70 7e f7 bc 9c 7a d5 bc b8 d8 40 bc
       0.013034724 -0.030211657 -0.026059441 -0.01177042
0000e0 70 1d 09 bd da 2b 0d 3d 3c d9 43 3d a0 8b 80 3b
       -0.03347534 0.03446565 0.047814593 0.0039228946
0000f0 ce f8 61 3d e4 0e d6 bc 00 27 cc 3a 18 dd 07 bc
       0.05516892 -0.026130147 0.0015575588 -0.008292459
000100 60 c7 16 bb fc d9 6a bd 28 a5 53 3c ea 19 20 bd
       -0.002300702 -0.057336792 0.012917794 -0.039087214
000110 60 f3 9a bc e0 5c d8 3b f2 a8 6f 3d 4e 9d 35 bd
       -0.018914878 0.0066028684 0.05851073 -0.04433947
000120 c6 d8 39 bd 6c 34 a4 bc c0 96 9f 3b 12 1c 60 3d
       -0.045372747 -0.020044528 0.0048702657 0.05471427
000130 b8 e9 74 bd 5a 32 11 bd f8 50 82 bc 76 dc 63 3d
       -0.059793204 -0.03544841 -0.01590775 0.05563017
000140 2e 14 52 bd 58 63 69 3c 60 9a 00 3b 1e 2a 19 3d
       -0.051288776 0.014244877 0.0019623265 0.03739368
000150 80 2d 17 3d f0 ba 43 3c 58 86 b6 bc 4c f2 3d bd
       0.036908627 0.011946425 -0.022280857 -0.04637365
000160 d2 a0 5d bd e0 20 5f 3d c0 9f 2b 3d 4a e8 2a 3d
       -0.05410845 0.05447471 0.041900396 0.041725434
000170 a8 15 c2 bc 70 a4 42 3d 6e 82 29 3d c8 d1 3d bd
       -0.023691967 0.0475201 0.041384153 -0.04634264
000180 88 7c 7b 3c ee c6 33 3d c0 4f f2 bb 98 ff af 3c
       0.015349515 0.043890886 -0.007394761 0.021484181
000190 a0 9d d9 bb 4c f0 c1 bc e8 9c 14 3d 68 73 0b bc
       -0.006641105 -0.023674153 0.03628245 -0.008511402
0001a0 c8 c4 32 3c 94 e6 3d bd 1c aa db 3c 80 1a 38 3d
       0.010911174 -0.046362475 0.026814513 0.044947147
0001b0 10 ef a6 3b 94 5a 0f bd c8 13 da bc 20 48 0b 3b
       0.0050944164 -0.03499849 -0.02662076 0.0021252707
0001c0 20 c5 d0 bb 86 8a 55 3d dc 14 af bc 06 86 42 bd
       -0.0063711554 0.05213406 -0.021372251 -0.047491096
0001d0 a8 1b 4f bd 10 0a e4 3b 18 44 10 bd 88 f4 65 bc
       -0.050563484 0.0069592074 -0.03522119 -0.014035352
0001e0 22 2a 76 bd c2 ff 5b 3d e8 62 1a bc 78 21 77 3d
       -0.060098775 0.053710707 -0.009422995 0.060334653
0001f0 9c 1b 63 3d c4 77 6c 3d 2c 86 3c 3d 50 7a 31 3c
       0.055446252 0.057731405 0.046026394 0.010832384
000200 00 5d 6e 3d 04 0d ce 3c 48 9e 37 3d 90 d3 f8 bc
       0.05819416 0.02515269 0.044828683 -0.030374318
000210 08 a3 ca bc d0 16 d7 bc 80 0f b4 ba 18 38 0b bc
       -0.024735942 -0.026255995 -0.001373753 -0.0084972605
000220 d8 05 32 bd 40 08 1f bb f0 9e 8c 3b dc d5 3f bd
       -0.043462604 -0.0024266392 0.0042914078 -0.04683481
000230 b2 0b 45 3d d8 d4 8f bc 90 89 6d 3c 3c ed 40 bd
       0.048106857 -0.017557546 0.0144981295 -0.047101244
000240 74 31 39 3d 04 58 36 bd 6e b4 4d 3d d0 ca 05 3c
       0.045213178 -0.044517532 0.0502209 0.00816603
000250 00 ec 6e 3b ec 60 2f 3d 98 d8 26 3c b0 0e 80 bc
       0.0036456585 0.04281704 0.010183476 -0.015632004
000260 c4 77 de bc f4 4a 0d 3d 08 52 4b bc 3e 3e 6a 3d
       -0.027156718 0.03449531 -0.0124096945 0.057188265
000270 e0 c1 31 3d 00 8a 3e 3a c0 8a 20 3c e4 32 6b bd
       0.043397784 0.00072684884 0.009798706 -0.05742158
000280 ac 34 40 bd 18 58 05 3d 4c 89 3f 3d 30 c7 a7 bb
       -0.04692523 0.032554716 0.046761796 -0.0051201805
000290 6c 13 7c 3d 38 26 89 3c d8 b7 60 3c d0 98 99 bc
       0.06154196 0.016741857 0.013715707 -0.018749624
0002a0 5c 64 6d 3d 68 a2 a5 3c 30 dd 18 bd 98 41 92 3c
       0.05795704 0.020219043 -0.037320316 0.017853543
0002b0 e2 0d 4e bd 38 69 de 3c 80 fa e4 3c a2 af 43 bd
       -0.05030621 0.027149782 0.027951479 -0.04777492
0002c0 7c b5 74 bd 6e 04 79 3d c2 76 3a 3d 2a 8a 5c bd
       -0.05974339 0.06079524 0.045523413 -0.0538427
0002d0 4c 11 cc bc 00 39 a7 3c fa bc 66 3d 20 16 00 bc
       -0.024910592 0.020412922 0.056332566 -0.007817775
0002e0 c0 9e 76 3d 74 92 00 3d 20 ce 2e bb fc 93 8c 3c
       0.06020999 0.03138967 -0.0026673153 0.017160408
0002f0 e0 e1 f1 bb 34 7c 20 3d 04 e5 1e 3d f0 d4 2c 3c
       -0.0073816627 0.03918095 0.038792625 0.010548815
000300 54 b6 4b bd 78 2c 15 3c f0 f2 c0 bb 78 00 a4 3c
       -0.04973443 0.00910484 -0.0058883354 0.020019755
000310 f4 00 20 bd 84 8e ad bc 54 72 a6 bc d8 85 65 3c
       -0.03906341 -0.02118612 -0.020318188 0.014008962
000320 6a 08 3b 3d cc 44 e7 bc 98 af 32 bc 90 33 49 bd
       0.04566232 -0.028231047 -0.010906123 -0.04912144
000330 80 05 b8 bc ac 7e 18 bd 66 7a 57 bd 20 64 09 bd
       -0.02246356 -0.03723018 -0.052606963 -0.033542752
000340 e0 5e f5 3c 90 9b 51 bc 10 5a f9 bc 78 5f b7 3c
       0.029952466 -0.012793437 -0.030438453 0.02238439
000350 64 f8 5e bd 60 ae 6f bd b8 18 8c bc 58 a9 23 bd
       -0.054436103 -0.058515906 -0.01710163 -0.03995642
000360 80 06 75 bb 84 97 05 3d 84 3e d3 3c 48 7f 89 bc
       -0.0037387908 0.0326152 0.025786646 -0.016784325
000370 20 31 59 3d 50 fa d8 3c 90 00 c8 3c ae aa 4c bd
       0.053025365 0.026486546 0.02441433 -0.04996746
000380 44 45 19 3d aa 40 09 bd c0 b4 2f 3c 46 ee 3a bd
       0.037419572 -0.033508934 0.0107242465 -0.04563739
000390 02 f7 7d bd b0 8f 2d bd 00 bb 2d bc de cb 4d 3d
       -0.062003143 -0.04237336 -0.010603666 0.05024325
0003a0 14 1b 28 bd 7a cd 36 3d 2c 49 c0 bc 18 05 b4 3c
       -0.04104145 0.04462955 -0.023472391 0.021975085
0003b0 80 67 44 bd c8 e4 40 bd 5c df 48 bd f6 1e 4e 3d
       -0.047950268 -0.047093183 -0.049041137 0.050322495
0003c0 e4 eb 68 3d f4 62 a2 bc e4 93 c1 3c f6 d0 09 3d
       0.056865588 -0.019822575 0.02363009 0.033646546
0003d0 d4 d2 52 3d 16 2a 3a bd d0 a7 83 bb 6c 38 3a 3d
       0.051470593 -0.045450293 -0.0040178075 0.045463964
0003e0 80 d9 f5 bb a4 5f f4 bc 00 3c 86 ba 04 d8 bb 3c
       -0.0075027347 -0.029830761 -0.001024127 0.022930153
0003f0 50 91 1d bd 10 39 b5 3c dc 12 8f bc c2 3c 0a bd
       -0.03846866 0.022121936 -0.017465048 -0.03374935

layer_norm.weight f4 [256]
000000 00 00 80 3f 00 00 80 3f 00 00 80 3f 00 00 80 3f
       1.0 1.0 1.0 1.0
000010 00 00 80 3f 00 00 80 3f 00 00 80 3f 00 00 80 3f
       1.0 1.0 1.0 1.0
000020 00 00 80 3f 00 00 80 3f 00 00 80 3f 00 00 80 3f
       1.0 1.0 1.0 1.0
000030 00 00 80 3f 00 00 80 3f 00 00 80 3f 00 00 80 3f
       1.0 1.0 1.0 1.0
000040 00 00 80 3f 00 00 80 3f 00 00 80 3f 00 00 80 3f
       1.0 1.0 1.0 1.0
000050 00 00 80 3f 00 00 80 3f 00 00 80 3f 00 00 80 3f
       1.0 1.0 1.0 1.0
000060 00 00 80 3f 00 00 80 3f 00 00 80 3f 00 00 80 3f
       1.0 1.0 1.0 1.0
000070 00 00 80 3f 00 00 80 3f 00 00 80 3f 00 00 80 3f
       1.0 1.0 1.0 1.0
000080 00 00 80 3f 00 00 80 3f 00 00 80 3f 00 00 80 3f
       1.0 1.0 1.0 1.0
000090 00 00 80 3f 00 00 80 3f 00 00 80 3f 00 00 80 3f
       1.0 1.0 1.0 1.0
0000a0 00 00 80 3f 00 00 80 3f 00 00 80 3f 00 00 80 3f
       1.0 1.0 1.0 1.0
0000b0 00 00 80 3f 00 00 80 3f 00 00 80 3f 00 00 80 3f
       1.0 1.0 1.0 1.0
0000c0 00 00 80 3f 00 00 80 3f 00 00 80 3f 00 00 80 3f
       1.0 1.0 1.0 1.0
0000d0 00 00 80 3f 00 00 80 3f 00 00 80 3f 00 00 80 3f
       1.0 1.0 1.0 1.0
0000e0 00 00 80 3f 00 00 80 3f 00 00 80 3f 00 00 80 3f
       1.0 1.0 1.0 1.0
0000f0 00 00 80 3f 00 00 80 3f 00 00 80 3f 00 00 80 3f
       1.0 1.0 1.0 1.0
000100 00 00 80 3f 00 00 80 3f 00 00 80 3f 00 00 80 3f
       1.0 1.0 1.0 1.0
000110 00 00 80 3f 00 00 80 3f 00 00 80 3f 00 00 80 3f
       1.0 1.0 1.0 1.0
000120 00 00 80 3f 00 00 80 3f 00 00 80 3f 00 00 80 3f
       1.0 1.0 1.0 1.0
000130 00 00 80 3f 00 00 80 3f 00 00 80 3f 00 00 80 3f
       1.0 1.0 1.0 1.0
000140 00 00 80 3f 00 00 80 3f 00 00 80 3f 00 00 80 3f
       1.0 1.0 1.0 1.0
000150 00 00 80 3f 00 00 80 3f 00 00 80 3f 00 00 80 3f
       1.0 1.0 1.0 1.0
000160 00 00 80 3f 00 00 80 3f 00 00 80 3f 00 00 80 3f
       1.0 1.0 1.0 1.0
000170 00 00 80 3f 00 00 80 3f 00 00 80 3f 00 00 80 3f
       1.0 1.0 1.0 1.0
000180 00 00 80 3f 00 00 80 3f 00 00 80 3f 00 00 80 3f
       1.0 1.0 1.0 1.0
000190 00 00 80 3f 00 00 80 3f 00 00 80 3f 00 00 80 3f
       1.0 1.0 1.0 1.0
0001a0 00 00 80 3f 00 00 80 3f 00 00 80 3f 00 00 80 3f
       1.0 1.0 1.0 1.0
0001b0 00 00 80 3f 00 00 80 3f 00 00 80 3f 00 00 80 3f
       1.0 1.0 1.0 1.0
0001c0 00 00 80 3f 00 00 80 3f 00 00 80 3f 00 00 80 3f
       1.0 1.0 1.0 1.0
0001d0 00 00 80 3f 00 00 80 3f 00 00 80 3f 00 00 80 3f
       1.0 1.0 1.0 1.0
0001e0 00 00 80 3f 00 00 80 3f 00 00 80 3f 00 00 80 3f
       1.0 1.0 1.0 1.0
0001f0 00 00 80 3f 00 00 80 3f 00 00 80 3f 00 00 80 3f
       1.0 1.0 1.0 1.0
000200 00 00 80 3f 00 00 80 3f 00 00 80 3f 00 00 80 3f
       1.0 1.0 1.0 1.0
000210 00 00 80 3f 00 00 80 3f 00 00 80 3f 00 00 80 3f
       1.0 1.0 1.0 1.0
000220 00 00 80 3f 00 00 80 3f 00 00 80 3f 00 00 80 3f
       1.0 1.0 1.0 1.0
000230 00 00 80 3f 00 00 80 3f 00 00 80 3f 00 00 80 3f
       1.0 1.0 1.0 1.0
000240 00 00 80 3f 00 00 80 3f 00 00 80 3f 00 00 80 3f
       1.0 1.0 1.0 1.0
000250 00 00 80 3f 00 00 80 3f 00 00 80 3f 00 00 80 3f
       1.0 1.0 1.0 1.0
000260 00 00 80 3f 00 00 80 3f 00 00 80 3f 00 00 80 3f
       1.0 1.0 1.0 1.0
000270 00 00 80 3f 00 00 80 3f 00 00 80 3f 00 00 80 3f
       1.0 1.0 1.0 1.0
000280 00 00 80 3f 00 00 80 3f 00 00 80 3f 00 00 80 3f
       1.0 1.0 1.0 1.0
000290 00 00 80 3f 00 00 80 3f 00 00 80 3f 00 00 80 3f
       1.0 1.0 1.0 1.0
0002a0 00 00 80 3f 00 00 80 3f 00 00 80 3f 00 00 80 3f
       1.0 1.0 1.0 1.0
0002b0 00 00 80 3f 00 00 80 3f 00 00 80 3f 00 00 80 3f
       1.0 1.0 1.0 1.0
0002c0 00 00 80 3f 00 00 80 3f 00 00 80 3f 00 00 80 3f
       1.0 1.0 1.0 1.0
0002d0 00 00 80 3f 00 00 80 3f 00 00 80 3f 00 00 80 3f
       1.0 1.0 1.0 1.0
0002e0 00 00 80 3f 00 00 80 3f 00 00 80 3f 00 00 80 3f
       1.0 1.0 1.0 1.0
0002f0 00 00 80 3f 00 00 80 3f 00 00 80 3f 00 00 80 3f
       1.0 1.0 1.0 1.0
000300 00 00 80 3f 00 00 80 3f 00 00 80 3f 00 00 80 3f
       1.0 1.0 1.0 1.0
000310 00 00 80 3f 00 00 80 3f 00 00 80 3f 00 00 80 3f
       1.0 1.0 1.0 1.0
000320 00 00 80 3f 00 00 80 3f 00 00 80 3f 00 00 80 3f
       1.0 1.0 1.0 1.0
000330 00 00 80 3f 00 00 80 3f 00 00 80 3f 00 00 80 3f
       1.0 1.0 1.0 1.0
000340 00 00 80 3f 00 00 80 3f 00 00 80 3f 00 00 80 3f
       1.0 1.0 1.0 1.0
000350 00 00 80 3f 00 00 80 3f 00 00 80 3f 00 00 80 3f
       1.0 1.0 1.0 1.0
000360 00 00 80 3f 00 00 80 3f 00 00 80 3f 00 00 80 3f
       1.0 1.0 1.0 1.0
000370 00 00 80 3f 00 00 80 3f 00 00 80 3f 00 00 80 3f
       1.0 1.0 1.0 1.0
000380 00 00 80 3f 00 00 80 3f 00 00 80 3f 00 00 80 3f
       1.0 1.0 1.0 1.0
000390 00 00 80 3f 00 00 80 3f 00 00 80 3f 00 00 80 3f
       1.0 1.0 1.0 1.0
0003a0 00 00 80 3f 00 00 80 3f 00 00 80 3f 00 00 80 3f
       1.0 1.0 1.0 1.0
0003b0 00 00 80 3f 00 00 80 3f 00 00 80 3f 00 00 80 3f
       1.0 1.0 1.0 1.0
0003c0 00 00 80 3f 00 00 80 3f 00 00 80 3f 00 00 80 3f
       1.0 1.0 1.0 1.0
0003d0 00 00 80 3f 00 00 80 3f 00 00 80 3f 00 00 80 3f
       1.0 1.0 1.0 1.0
0003e0 00 00 80 3f 00 00 80 3f 00 00 80 3f 00 00 80 3f
       1.0 1.0 1.0 1.0
0003f0 00 00 80 3f 00 00 80 3f 00 00 80 3f 00 00 80 3f
       1.0 1.0 1.0 1.0

layer_norm.bias f4 [256]
000000 00 00 00 00 00 00 00 00 00 00 00 00 00 00 00 00
       0.0 0.0 0.0 0.0
000010 00 00 00 00 00 00 00 00 00 00 00 00 00 00 00 00
       0.0 0.0 0.0 0.0
000020 00 00 00 00 00 00 00 00 00 00 00 00 00 00 00 00
       0.0 0.0 0.0 0.0
000030 00 00 00 00 00 00 00 00 00 00 00 00 00 00 00 00
       0.0 0.0 0.0 0.0
000040 00 00 00 00 00 00 00 00 00 00 00 00 00 00 00 00
       0.0 0.0 0.0 0.0
000050 00 00 00 00 00 00 00 00 00 00 00 00 00 00 00 00
       0.0 0.0 0.0 0.0
000060 00 00 00 00 00 00 00 00 00 00 00 00 00 00 00 00
       0.0 0.0 0.0 0.0
000070 00 00 00 00 00 00 00 00 00 00 00 00 00 00 00 00
       0.0 0.0 0.0 0.0
000080 00 00 00 00 00 00 00 00 00 00 00 00 00 00 00 00
       0.0 0.0 0.0 0.0
000090 00 00 00 00 00 00 00 00 00 00 00 00 00 00 00 00
       0.0 0.0 0.0 0.0
0000a0 00 00 00 00 00 00 00 00 00 00 00 00 00 00 00 00
       0.0 0.0 0.0 0.0
0000b0 00 00 00 00 00 00 00 00 00 00 00 00 00 00 00 00
       0.0 0.0 0.0 0.0
0000c0 00 00 00 00 00 00 00 00 00 00 00 00 00 00 00 00
       0.0 0.0 0.0 0.0
0000d0 00 00 00 00 00 00 00 00 00 00 00 00 00 00 00 00
       0.0 0.0 0.0 0.0
0000e0 00 00 00 00 00 00 00 00 00 00 00 00 00 00 00 00
       0.0 0.0 0.0 0.0
0000f0 00 00 00 00 00 00 00 00 00 00 00 00 00 00 00 00
       0.0 0.0 0.0 0.0
000100 00 00 00 00 00 00 00 00 00 00 00 00 00 00 00 00
       0.0 0.0 0.0 0.0
000110 00 00 00 00 00 00 00 00 00 00 00 00 00 00 00 00
       0.0 0.0 0.0 0.0
000120 00 00 00 00 00 00 00 00 00 00 00 00 00 00 00 00
       0.0 0.0 0.0 0.0
000130 00 00 00 00 00 00 00 00 00 00 00 00 00 00 00 00
       0.0 0.0 0.0 0.0
000140 00 00 00 00 00 00 00 00 00 00 00 00 00 00 00 00
       0.0 0.0 0.0 0.0
000150 00 00 00 00 00 00 00 00 00 00 00 00 00 00 00 00
       0.0 0.0 0.0 0.0
000160 00 00 00 00 00 00 00 00 00 00 00 00 00 00 00 00
       0.0 0.0 0.0 0.0
000170 00 00 00 00 00 00 00 00 00 00 00 00 00 00 00 00
       0.0 0.0 0.0 0.0
000180 00 00 00 00 00 00 00 00 00 00 00 00 00 00 00 00
       0.0 0.0 0.0 0.0
000190 00 00 00 00 00 00 00 00 00 00 00 00 00 00 00 00
       0.0 0.0 0.0 0.0
0001a0 00 00 00 00 00 00 00 00 00 00 00 00 00 00 00 00
       0.0 0.0 0.0 0.0
0001b0 00 00 00 00 00 00 00 00 00 00 00 00 00 00 00 00
       0.0 0.0 0.0 0.0
0001c0 00 00 00 00 00 00 00 00 00 00 00 00 00 00 00 00
       0.0 0.0 0.0 0.0
0001d0 00 00 00 00 00 00 00 00 00 00 00 00 00 00 00 00
       0.0 0.0 0.0 0.0
0001e0 00 00 00 00 00 00 00 00 00 00 00 00 00 00 00 00
       0.0 0.0 0.0 0.0
0001f0 00 00 00 00 00 00 00 00 00 00 00 00 00 00 00 00
       0.0 0.0 0.0 0.0
000200 00 00 00 00 00 00 00 00 00 00 00 00 00 00 00 00
       0.0 0.0 0.0 0.0
000210 00 00 00 00 00 00 00 00 00 00 00 00 00 00 00 00
       0.0 0.0 0.0 0.0
000220 00 00 00 00 00 00 00 00 00 00 00 00 00 00 00 00
       0.0 0.0 0.0 0.0
000230 00 00 00 00 00 00 00 00 00 00 00 00 00 00 00 00
       0.0 0.0 0.0 0.0
000240 00 00 00 00 00 00 00 00 00 00 00 00 00 00 00 00
       0.0 0.0 0.0 0.0
000250 00 00 00 00 00 00 00 00 00 00 00 00 00 00 00 00
       0.0 0.0 0.0 0.0
000260 00 00 00 00 00 00 00 00 00 00 00 00 00 00 00 00
       0.0 0.0 0.0 0.0
000270 00 00 00 00 00 00 00 00 00 00 00 00 00 00 00 00
       0.0 0.0 0.0 0.0
000280 00 00 00 00 00 00 00 00 00 00 00 00 00 00 00 00
       0.0 0.0 0.0 0.0
000290 00 00 00 00 00 00 00 00 00 00 00 00 00 00 00 00
       0.0 0.0 0.0 0.0
0002a0 00 00 00 00 00 00 00 00 00 00 00 00 00 00 00 00
       0.0 0.0 0.0 0.0
0002b0 00 00 00 00 00 00 00 00 00 00 00 00 00 00 00 00
       0.0 0.0 0.0 0.0
0002c0 00 00 00 00 00 00 00 00 00 00 00 00 00 00 00 00
       0.0 0.0 0.0 0.0
0002d0 00 00 00 00 00 00 00 00 00 00 00 00 00 00 00 00
       0.0 0.0 0.0 0.0
0002e0 00 00 00 00 00 00 00 00 00 00 00 00 00 00 00 00
       0.0 0.0 0.0 0.0
0002f0 00 00 00 00 00 00 00 00 00 00 00 00 00 00 00 00
       0.0 0.0 0.0 0.0
000300 00 00 00 00 00 00 00 00 00 00 00 00 00 00 00 00
       0.0 0.0 0.0 0.0
000310 00 00 00 00 00 00 00 00 00 00 00 00 00 00 00 00
       0.0 0.0 0.0 0.0
000320 00 00 00 00 00 00 00 00 00 00 00 00 00 00 00 00
       0.0 0.0 0.0 0.0
000330 00 00 00 00 00 00 00 00 00 00 00 00 00 00 00 00
       0.0 0.0 0.0 0.0
000340 00 00 00 00 00 00 00 00 00 00 00 00 00 00 00 00
       0.0 0.0 0.0 0.0
000350 00 00 00 00 00 00 00 00 00 00 00 00 00 00 00 00
       0.0 0.0 0.0 0.0
000360 00 00 00 00 00 00 00 00 00 00 00 00 00 00 00 00
       0.0 0.0 0.0 0.0
000370 00 00 00 00 00 00 00 00 00 00 00 00 00 00 00 00
       0.0 0.0 0.0 0.0
000380 00 00 00 00 00 00 00 00 00 00 00 00 00 00 00 00
       0.0 0.0 0.0 0.0
000390 00 00 00 00 00 00 00 00 00 00 00 00 00 00 00 00
       0.0 0.0 0.0 0.0
0003a0 00 00 00 00 00 00 00 00 00 00 00 00 00 00 00 00
       0.0 0.0 0.0 0.0
0003b0 00 00 00 00 00 00 00 00 00 00 00 00 00 00 00 00
       0.0 0.0 0.0 0.0
0003c0 00 00 00 00 00 00 00 00 00 00 00 00 00 00 00 00
       0.0 0.0 0.0 0.0
0003d0 00 00 00 00 00 00 00 00 00 00 00 00 00 00 00 00
       0.0 0.0 0.0 0.0
0003e0 00 00 00 00 00 00 00 00 00 00 00 00 00 00 00 00
       0.0 0.0 0.0 0.0
0003f0 00 00 00 00 00 00 00 00 00 00 00 00 00 00 00 00
       0.0 0.0 0.0 0.0
